…
[63672] Initializing process group with: {'MASTER_ADDR': 'dudu-set-0.dudu-jax.pelegdav.svc.cluster.local', 'MASTER_PORT': '41783', 'RANK': '0', 'WORLD_SIZE': '4'}
[63673] Initializing process group with: {'MASTER_ADDR': 'dudu-set-0.dudu-jax.pelegdav.svc.cluster.local', 'MASTER_PORT': '41783', 'RANK': '1', 'WORLD_SIZE': '4'}
[63672] rank = 0, world_size = 4
[63674] rank = 2, world_size = 4
[63673] rank = 1, world_size = 4
[63675] rank = 3, world_size = 4
initializing optimizer and loss  in global rank 2
initializing optimizer and loss  in global rank 0
initializing optimizer and loss  in global rank 3
total trainable parameter amount: 32302090
model: 
DistributedDataParallel(
  (module): Net(
    (seq): ModuleList(
      (0): Linear(in_features=784, out_features=1024, bias=True)
      (1): Linear(in_features=1024, out_features=1024, bias=True)
      (2): Linear(in_features=1024, out_features=1024, bias=True)
      (3): Linear(in_features=1024, out_features=1024, bias=True)
      (4): Linear(in_features=1024, out_features=1024, bias=True)
      (5): Linear(in_features=1024, out_features=1024, bias=True)
      (6): Linear(in_features=1024, out_features=1024, bias=True)
      (7): Linear(in_features=1024, out_features=1024, bias=True)
      (8): Linear(in_features=1024, out_features=1024, bias=True)
      (9): Linear(in_features=1024, out_features=1024, bias=True)
      (10): Linear(in_features=1024, out_features=1024, bias=True)
      (11): Linear(in_features=1024, out_features=1024, bias=True)
      (12): Linear(in_features=1024, out_features=1024, bias=True)
      (13): Linear(in_features=1024, out_features=1024, bias=True)
      (14): Linear(in_features=1024, out_features=1024, bias=True)
      (15): Linear(in_features=1024, out_features=1024, bias=True)
      (16): Linear(in_features=1024, out_features=1024, bias=True)
      (17): Linear(in_features=1024, out_features=1024, bias=True)
      (18): Linear(in_features=1024, out_features=1024, bias=True)
      (19): Linear(in_features=1024, out_features=1024, bias=True)
      (20): Linear(in_features=1024, out_features=1024, bias=True)
      (21): Linear(in_features=1024, out_features=1024, bias=True)
      (22): Linear(in_features=1024, out_features=1024, bias=True)
      (23): Linear(in_features=1024, out_features=1024, bias=True)
      (24): Linear(in_features=1024, out_features=1024, bias=True)
      (25): Linear(in_features=1024, out_features=1024, bias=True)
      (26): Linear(in_features=1024, out_features=1024, bias=True)
      (27): Linear(in_features=1024, out_features=1024, bias=True)
      (28): Linear(in_features=1024, out_features=1024, bias=True)
      (29): Linear(in_features=1024, out_features=1024, bias=True)
      (30): Linear(in_features=1024, out_features=1024, bias=True)
      (31): Linear(in_features=1024, out_features=10, bias=True)
    )
    (dropout): Dropout(p=0.1, inplace=False)
  )
)
initializing optimizer and loss  in global rank 1
[65775] Initializing process group with: {'MASTER_ADDR': 'dudu-set-0.dudu-jax.pelegdav.svc.cluster.local', 'MASTER_PORT': '42311', 'RANK': '2', 'WORLD_SIZE': '4'}
[65773] Initializing process group with: {'MASTER_ADDR': 'dudu-set-0.dudu-jax.pelegdav.svc.cluster.local', 'MASTER_PORT': '42311', 'RANK': '0', 'WORLD_SIZE': '4'}
…
