…
[76126] Initializing process group with: {'MASTER_ADDR': 'dudu-set-0.dudu-jax.pelegdav.svc.cluster.local', 'MASTER_PORT': '49103', 'RANK': '0', 'WORLD_SIZE': '4'}
[76126] rank = 0, world_size = 4
[76128] rank = 2, world_size = 4
[76129] rank = 3, world_size = 4
[76127] rank = 1, world_size = 4
initializing optimizer and loss  in global rank 2
initializing optimizer and loss  in global rank 3
initializing optimizer and loss  in global rank 0
initializing optimizer and loss  in global rank 1
total trainable parameter amount: 32302090
model: 
DistributedDataParallel(
  (module): Net(
    (seq): ModuleList(
      (0): Linear(in_features=784, out_features=1024, bias=True)
      (1): Linear(in_features=1024, out_features=1024, bias=True)
      (2): Linear(in_features=1024, out_features=1024, bias=True)
      (3): Linear(in_features=1024, out_features=1024, bias=True)
      (4): Linear(in_features=1024, out_features=1024, bias=True)
      (5): Linear(in_features=1024, out_features=1024, bias=True)
      (6): Linear(in_features=1024, out_features=1024, bias=True)
      (7): Linear(in_features=1024, out_features=1024, bias=True)
      (8): Linear(in_features=1024, out_features=1024, bias=True)
      (9): Linear(in_features=1024, out_features=1024, bias=True)
      (10): Linear(in_features=1024, out_features=1024, bias=True)
      (11): Linear(in_features=1024, out_features=1024, bias=True)
      (12): Linear(in_features=1024, out_features=1024, bias=True)
      (13): Linear(in_features=1024, out_features=1024, bias=True)
      (14): Linear(in_features=1024, out_features=1024, bias=True)
      (15): Linear(in_features=1024, out_features=1024, bias=True)
      (16): Linear(in_features=1024, out_features=1024, bias=True)
      (17): Linear(in_features=1024, out_features=1024, bias=True)
      (18): Linear(in_features=1024, out_features=1024, bias=True)
      (19): Linear(in_features=1024, out_features=1024, bias=True)
      (20): Linear(in_features=1024, out_features=1024, bias=True)
      (21): Linear(in_features=1024, out_features=1024, bias=True)
      (22): Linear(in_features=1024, out_features=1024, bias=True)
      (23): Linear(in_features=1024, out_features=1024, bias=True)
      (24): Linear(in_features=1024, out_features=1024, bias=True)
      (25): Linear(in_features=1024, out_features=1024, bias=True)
      (26): Linear(in_features=1024, out_features=1024, bias=True)
      (27): Linear(in_features=1024, out_features=1024, bias=True)
      (28): Linear(in_features=1024, out_features=1024, bias=True)
      (29): Linear(in_features=1024, out_features=1024, bias=True)
      (30): Linear(in_features=1024, out_features=1024, bias=True)
      (31): Linear(in_features=1024, out_features=10, bias=True)
    )
    (dropout): Dropout(p=0.1, inplace=False)
  )
)
RANK = 3, GPU AMOUNT = 4, ELAPSED TIME = 16.725275993347168s, AVG. THROUGHPUT = 29635.453650049072 samples/s
RANK = 2, GPU AMOUNT = 4, ELAPSED TIME = 16.726019382476807s, AVG. THROUGHPUT = 29636.63715986755 samples/s
RANK = 0, GPU AMOUNT = 4, ELAPSED TIME = 16.737130403518677s, AVG. THROUGHPUT = 29604.30021018044 samples/s
…
