[646] Initializing process group with: {'MASTER_ADDR': 'dudu-set-0.pytorch.pelegdav.svc.cluster.local', 'MASTER_PORT': '32813', 'RANK': '0', 'WORLD_SIZE': '1'}
[646] rank = 0, world_size = 1
initializing optimizer and loss  in global rank 0
total trainable parameter amount: 32302090
model: 
DistributedDataParallel(
  (module): Net(
    (seq): ModuleList(
      (0): Linear(in_features=784, out_features=1024, bias=True)
      (1): Linear(in_features=1024, out_features=1024, bias=True)
      (2): Linear(in_features=1024, out_features=1024, bias=True)
      (3): Linear(in_features=1024, out_features=1024, bias=True)
      (4): Linear(in_features=1024, out_features=1024, bias=True)
      (5): Linear(in_features=1024, out_features=1024, bias=True)
      (6): Linear(in_features=1024, out_features=1024, bias=True)
      (7): Linear(in_features=1024, out_features=1024, bias=True)
      (8): Linear(in_features=1024, out_features=1024, bias=True)
      (9): Linear(in_features=1024, out_features=1024, bias=True)
      (10): Linear(in_features=1024, out_features=1024, bias=True)
      (11): Linear(in_features=1024, out_features=1024, bias=True)
      (12): Linear(in_features=1024, out_features=1024, bias=True)
      (13): Linear(in_features=1024, out_features=1024, bias=True)
      (14): Linear(in_features=1024, out_features=1024, bias=True)
      (15): Linear(in_features=1024, out_features=1024, bias=True)
      (16): Linear(in_features=1024, out_features=1024, bias=True)
      (17): Linear(in_features=1024, out_features=1024, bias=True)
      (18): Linear(in_features=1024, out_features=1024, bias=True)
      (19): Linear(in_features=1024, out_features=1024, bias=True)
      (20): Linear(in_features=1024, out_features=1024, bias=True)
      (21): Linear(in_features=1024, out_features=1024, bias=True)
      (22): Linear(in_features=1024, out_features=1024, bias=True)
      (23): Linear(in_features=1024, out_features=1024, bias=True)
      (24): Linear(in_features=1024, out_features=1024, bias=True)
      (25): Linear(in_features=1024, out_features=1024, bias=True)
      (26): Linear(in_features=1024, out_features=1024, bias=True)
      (27): Linear(in_features=1024, out_features=1024, bias=True)
      (28): Linear(in_features=1024, out_features=1024, bias=True)
      (29): Linear(in_features=1024, out_features=1024, bias=True)
      (30): Linear(in_features=1024, out_features=1024, bias=True)
      (31): Linear(in_features=1024, out_features=10, bias=True)
    )
    (dropout): Dropout(p=0.1, inplace=False)
  )
)
RANK = 0, GPU AMOUNT = 1, ELAPSED TIME = 874.3799695968628s, BATCH = 32, AVG. THROUGHPUT = 686.2084934233719 samples/s,  AVG. LATENCY = 87.43790876865387
Test Loss: 4453853623.091200


Test Accuracy (Overall): 8.5600% (856/10000)
[646] rank = 0, world_size = 1
initializing optimizer and loss  in global rank 0
total trainable parameter amount: 32302090
model: 
DistributedDataParallel(
  (module): Net(
    (seq): ModuleList(
      (0): Linear(in_features=784, out_features=1024, bias=True)
      (1): Linear(in_features=1024, out_features=1024, bias=True)
      (2): Linear(in_features=1024, out_features=1024, bias=True)
      (3): Linear(in_features=1024, out_features=1024, bias=True)
      (4): Linear(in_features=1024, out_features=1024, bias=True)
      (5): Linear(in_features=1024, out_features=1024, bias=True)
      (6): Linear(in_features=1024, out_features=1024, bias=True)
      (7): Linear(in_features=1024, out_features=1024, bias=True)
      (8): Linear(in_features=1024, out_features=1024, bias=True)
      (9): Linear(in_features=1024, out_features=1024, bias=True)
      (10): Linear(in_features=1024, out_features=1024, bias=True)
      (11): Linear(in_features=1024, out_features=1024, bias=True)
      (12): Linear(in_features=1024, out_features=1024, bias=True)
      (13): Linear(in_features=1024, out_features=1024, bias=True)
      (14): Linear(in_features=1024, out_features=1024, bias=True)
      (15): Linear(in_features=1024, out_features=1024, bias=True)
      (16): Linear(in_features=1024, out_features=1024, bias=True)
      (17): Linear(in_features=1024, out_features=1024, bias=True)
      (18): Linear(in_features=1024, out_features=1024, bias=True)
      (19): Linear(in_features=1024, out_features=1024, bias=True)
      (20): Linear(in_features=1024, out_features=1024, bias=True)
      (21): Linear(in_features=1024, out_features=1024, bias=True)
      (22): Linear(in_features=1024, out_features=1024, bias=True)
      (23): Linear(in_features=1024, out_features=1024, bias=True)
      (24): Linear(in_features=1024, out_features=1024, bias=True)
      (25): Linear(in_features=1024, out_features=1024, bias=True)
      (26): Linear(in_features=1024, out_features=1024, bias=True)
      (27): Linear(in_features=1024, out_features=1024, bias=True)
      (28): Linear(in_features=1024, out_features=1024, bias=True)
      (29): Linear(in_features=1024, out_features=1024, bias=True)
      (30): Linear(in_features=1024, out_features=1024, bias=True)
      (31): Linear(in_features=1024, out_features=10, bias=True)
    )
    (dropout): Dropout(p=0.1, inplace=False)
  )
)
RANK = 0, GPU AMOUNT = 1, ELAPSED TIME = 873.4078404903412s, BATCH = 32, AVG. THROUGHPUT = 686.9714511792889 samples/s,  AVG. LATENCY = 87.34070558547974
Test Loss: 150563864091.033600


Test Accuracy (Overall): 17.8700% (1787/10000)
Rank: 0, ips: 686.9714511792889, 
WARNING:torch.distributed.run:
…
[7353] Initializing process group with: {'MASTER_ADDR': 'dudu-set-0.pytorch.pelegdav.svc.cluster.local', 'MASTER_PORT': '43281', 'RANK': '0', 'WORLD_SIZE': '3'}
[7355] Initializing process group with: {'MASTER_ADDR': 'dudu-set-0.pytorch.pelegdav.svc.cluster.local', 'MASTER_PORT': '43281', 'RANK': '2', 'WORLD_SIZE': '3'}
[7353] rank = 0, world_size = 3
[7355] rank = 2, world_size = 3
[7354] rank = 1, world_size = 3
initializing optimizer and loss  in global rank 1
initializing optimizer and loss  in global rank 0
initializing optimizer and loss  in global rank 2
total trainable parameter amount: 32302090
model: 
DistributedDataParallel(
  (module): Net(
    (seq): ModuleList(
      (0): Linear(in_features=784, out_features=1024, bias=True)
      (1): Linear(in_features=1024, out_features=1024, bias=True)
      (2): Linear(in_features=1024, out_features=1024, bias=True)
      (3): Linear(in_features=1024, out_features=1024, bias=True)
      (4): Linear(in_features=1024, out_features=1024, bias=True)
      (5): Linear(in_features=1024, out_features=1024, bias=True)
      (6): Linear(in_features=1024, out_features=1024, bias=True)
      (7): Linear(in_features=1024, out_features=1024, bias=True)
      (8): Linear(in_features=1024, out_features=1024, bias=True)
      (9): Linear(in_features=1024, out_features=1024, bias=True)
      (10): Linear(in_features=1024, out_features=1024, bias=True)
      (11): Linear(in_features=1024, out_features=1024, bias=True)
      (12): Linear(in_features=1024, out_features=1024, bias=True)
      (13): Linear(in_features=1024, out_features=1024, bias=True)
      (14): Linear(in_features=1024, out_features=1024, bias=True)
      (15): Linear(in_features=1024, out_features=1024, bias=True)
      (16): Linear(in_features=1024, out_features=1024, bias=True)
      (17): Linear(in_features=1024, out_features=1024, bias=True)
      (18): Linear(in_features=1024, out_features=1024, bias=True)
      (19): Linear(in_features=1024, out_features=1024, bias=True)
      (20): Linear(in_features=1024, out_features=1024, bias=True)
      (21): Linear(in_features=1024, out_features=1024, bias=True)
      (22): Linear(in_features=1024, out_features=1024, bias=True)
      (23): Linear(in_features=1024, out_features=1024, bias=True)
      (24): Linear(in_features=1024, out_features=1024, bias=True)
      (25): Linear(in_features=1024, out_features=1024, bias=True)
      (26): Linear(in_features=1024, out_features=1024, bias=True)
      (27): Linear(in_features=1024, out_features=1024, bias=True)
      (28): Linear(in_features=1024, out_features=1024, bias=True)
      (29): Linear(in_features=1024, out_features=1024, bias=True)
      (30): Linear(in_features=1024, out_features=1024, bias=True)
      (31): Linear(in_features=1024, out_features=10, bias=True)
    )
    (dropout): Dropout(p=0.1, inplace=False)
  )
)
RANK = 2, GPU AMOUNT = 3, ELAPSED TIME = 373.20909810066223s, BATCH = 32, AVG. THROUGHPUT = 1607.7443892074657 samples/s,  AVG. LATENCY = 37.32080800533295
RANK = 0, GPU AMOUNT = 3, ELAPSED TIME = 373.2137351036072s, BATCH = 32, AVG. THROUGHPUT = 1607.7230622337738 samples/s,  AVG. LATENCY = 37.32128283977509
…
